Predictor(
  (encoder): Encoder(
    (pretrain): ProteinBertModel(
      (embeddings): ProteinBertEmbeddings(
        (word_embeddings): Embedding(30, 768, padding_idx=0)
        (position_embeddings): Embedding(8192, 768)
        (token_type_embeddings): Embedding(1, 768)
        (LayerNorm): LayerNorm()
        (dropout): Dropout(p=0.1, inplace=False)
      )
      (encoder): ProteinBertEncoder(
        (layer): ModuleList(
          (0): ProteinBertLayer(
            (attention): ProteinBertAttention(
              (self): ProteinBertSelfAttention(
                (query): Linear(in_features=768, out_features=768, bias=True)
                (key): Linear(in_features=768, out_features=768, bias=True)
                (value): Linear(in_features=768, out_features=768, bias=True)
                (dropout): Dropout(p=0.1, inplace=False)
              )
              (output): ProteinBertSelfOutput(
                (dense): Linear(in_features=768, out_features=768, bias=True)
                (LayerNorm): LayerNorm()
                (dropout): Dropout(p=0.1, inplace=False)
              )
            )
            (intermediate): ProteinBertIntermediate(
              (dense): Linear(in_features=768, out_features=3072, bias=True)
            )
            (output): ProteinBertOutput(
              (dense): Linear(in_features=3072, out_features=768, bias=True)
              (LayerNorm): LayerNorm()
              (dropout): Dropout(p=0.1, inplace=False)
            )
          )
          (1): ProteinBertLayer(
            (attention): ProteinBertAttention(
              (self): ProteinBertSelfAttention(
                (query): Linear(in_features=768, out_features=768, bias=True)
                (key): Linear(in_features=768, out_features=768, bias=True)
                (value): Linear(in_features=768, out_features=768, bias=True)
                (dropout): Dropout(p=0.1, inplace=False)
              )
              (output): ProteinBertSelfOutput(
                (dense): Linear(in_features=768, out_features=768, bias=True)
                (LayerNorm): LayerNorm()
                (dropout): Dropout(p=0.1, inplace=False)
              )
            )
            (intermediate): ProteinBertIntermediate(
              (dense): Linear(in_features=768, out_features=3072, bias=True)
            )
            (output): ProteinBertOutput(
              (dense): Linear(in_features=3072, out_features=768, bias=True)
              (LayerNorm): LayerNorm()
              (dropout): Dropout(p=0.1, inplace=False)
            )
          )
          (2): ProteinBertLayer(
            (attention): ProteinBertAttention(
              (self): ProteinBertSelfAttention(
                (query): Linear(in_features=768, out_features=768, bias=True)
                (key): Linear(in_features=768, out_features=768, bias=True)
                (value): Linear(in_features=768, out_features=768, bias=True)
                (dropout): Dropout(p=0.1, inplace=False)
              )
              (output): ProteinBertSelfOutput(
                (dense): Linear(in_features=768, out_features=768, bias=True)
                (LayerNorm): LayerNorm()
                (dropout): Dropout(p=0.1, inplace=False)
              )
            )
            (intermediate): ProteinBertIntermediate(
              (dense): Linear(in_features=768, out_features=3072, bias=True)
            )
            (output): ProteinBertOutput(
              (dense): Linear(in_features=3072, out_features=768, bias=True)
              (LayerNorm): LayerNorm()
              (dropout): Dropout(p=0.1, inplace=False)
            )
          )
          (3): ProteinBertLayer(
            (attention): ProteinBertAttention(
              (self): ProteinBertSelfAttention(
                (query): Linear(in_features=768, out_features=768, bias=True)
                (key): Linear(in_features=768, out_features=768, bias=True)
                (value): Linear(in_features=768, out_features=768, bias=True)
                (dropout): Dropout(p=0.1, inplace=False)
              )
              (output): ProteinBertSelfOutput(
                (dense): Linear(in_features=768, out_features=768, bias=True)
                (LayerNorm): LayerNorm()
                (dropout): Dropout(p=0.1, inplace=False)
              )
            )
            (intermediate): ProteinBertIntermediate(
              (dense): Linear(in_features=768, out_features=3072, bias=True)
            )
            (output): ProteinBertOutput(
              (dense): Linear(in_features=3072, out_features=768, bias=True)
              (LayerNorm): LayerNorm()
              (dropout): Dropout(p=0.1, inplace=False)
            )
          )
          (4): ProteinBertLayer(
            (attention): ProteinBertAttention(
              (self): ProteinBertSelfAttention(
                (query): Linear(in_features=768, out_features=768, bias=True)
                (key): Linear(in_features=768, out_features=768, bias=True)
                (value): Linear(in_features=768, out_features=768, bias=True)
                (dropout): Dropout(p=0.1, inplace=False)
              )
              (output): ProteinBertSelfOutput(
                (dense): Linear(in_features=768, out_features=768, bias=True)
                (LayerNorm): LayerNorm()
                (dropout): Dropout(p=0.1, inplace=False)
              )
            )
            (intermediate): ProteinBertIntermediate(
              (dense): Linear(in_features=768, out_features=3072, bias=True)
            )
            (output): ProteinBertOutput(
              (dense): Linear(in_features=3072, out_features=768, bias=True)
              (LayerNorm): LayerNorm()
              (dropout): Dropout(p=0.1, inplace=False)
            )
          )
          (5): ProteinBertLayer(
            (attention): ProteinBertAttention(
              (self): ProteinBertSelfAttention(
                (query): Linear(in_features=768, out_features=768, bias=True)
                (key): Linear(in_features=768, out_features=768, bias=True)
                (value): Linear(in_features=768, out_features=768, bias=True)
                (dropout): Dropout(p=0.1, inplace=False)
              )
              (output): ProteinBertSelfOutput(
                (dense): Linear(in_features=768, out_features=768, bias=True)
                (LayerNorm): LayerNorm()
                (dropout): Dropout(p=0.1, inplace=False)
              )
            )
            (intermediate): ProteinBertIntermediate(
              (dense): Linear(in_features=768, out_features=3072, bias=True)
            )
            (output): ProteinBertOutput(
              (dense): Linear(in_features=3072, out_features=768, bias=True)
              (LayerNorm): LayerNorm()
              (dropout): Dropout(p=0.1, inplace=False)
            )
          )
          (6): ProteinBertLayer(
            (attention): ProteinBertAttention(
              (self): ProteinBertSelfAttention(
                (query): Linear(in_features=768, out_features=768, bias=True)
                (key): Linear(in_features=768, out_features=768, bias=True)
                (value): Linear(in_features=768, out_features=768, bias=True)
                (dropout): Dropout(p=0.1, inplace=False)
              )
              (output): ProteinBertSelfOutput(
                (dense): Linear(in_features=768, out_features=768, bias=True)
                (LayerNorm): LayerNorm()
                (dropout): Dropout(p=0.1, inplace=False)
              )
            )
            (intermediate): ProteinBertIntermediate(
              (dense): Linear(in_features=768, out_features=3072, bias=True)
            )
            (output): ProteinBertOutput(
              (dense): Linear(in_features=3072, out_features=768, bias=True)
              (LayerNorm): LayerNorm()
              (dropout): Dropout(p=0.1, inplace=False)
            )
          )
          (7): ProteinBertLayer(
            (attention): ProteinBertAttention(
              (self): ProteinBertSelfAttention(
                (query): Linear(in_features=768, out_features=768, bias=True)
                (key): Linear(in_features=768, out_features=768, bias=True)
                (value): Linear(in_features=768, out_features=768, bias=True)
                (dropout): Dropout(p=0.1, inplace=False)
              )
              (output): ProteinBertSelfOutput(
                (dense): Linear(in_features=768, out_features=768, bias=True)
                (LayerNorm): LayerNorm()
                (dropout): Dropout(p=0.1, inplace=False)
              )
            )
            (intermediate): ProteinBertIntermediate(
              (dense): Linear(in_features=768, out_features=3072, bias=True)
            )
            (output): ProteinBertOutput(
              (dense): Linear(in_features=3072, out_features=768, bias=True)
              (LayerNorm): LayerNorm()
              (dropout): Dropout(p=0.1, inplace=False)
            )
          )
          (8): ProteinBertLayer(
            (attention): ProteinBertAttention(
              (self): ProteinBertSelfAttention(
                (query): Linear(in_features=768, out_features=768, bias=True)
                (key): Linear(in_features=768, out_features=768, bias=True)
                (value): Linear(in_features=768, out_features=768, bias=True)
                (dropout): Dropout(p=0.1, inplace=False)
              )
              (output): ProteinBertSelfOutput(
                (dense): Linear(in_features=768, out_features=768, bias=True)
                (LayerNorm): LayerNorm()
                (dropout): Dropout(p=0.1, inplace=False)
              )
            )
            (intermediate): ProteinBertIntermediate(
              (dense): Linear(in_features=768, out_features=3072, bias=True)
            )
            (output): ProteinBertOutput(
              (dense): Linear(in_features=3072, out_features=768, bias=True)
              (LayerNorm): LayerNorm()
              (dropout): Dropout(p=0.1, inplace=False)
            )
          )
          (9): ProteinBertLayer(
            (attention): ProteinBertAttention(
              (self): ProteinBertSelfAttention(
                (query): Linear(in_features=768, out_features=768, bias=True)
                (key): Linear(in_features=768, out_features=768, bias=True)
                (value): Linear(in_features=768, out_features=768, bias=True)
                (dropout): Dropout(p=0.1, inplace=False)
              )
              (output): ProteinBertSelfOutput(
                (dense): Linear(in_features=768, out_features=768, bias=True)
                (LayerNorm): LayerNorm()
                (dropout): Dropout(p=0.1, inplace=False)
              )
            )
            (intermediate): ProteinBertIntermediate(
              (dense): Linear(in_features=768, out_features=3072, bias=True)
            )
            (output): ProteinBertOutput(
              (dense): Linear(in_features=3072, out_features=768, bias=True)
              (LayerNorm): LayerNorm()
              (dropout): Dropout(p=0.1, inplace=False)
            )
          )
          (10): ProteinBertLayer(
            (attention): ProteinBertAttention(
              (self): ProteinBertSelfAttention(
                (query): Linear(in_features=768, out_features=768, bias=True)
                (key): Linear(in_features=768, out_features=768, bias=True)
                (value): Linear(in_features=768, out_features=768, bias=True)
                (dropout): Dropout(p=0.1, inplace=False)
              )
              (output): ProteinBertSelfOutput(
                (dense): Linear(in_features=768, out_features=768, bias=True)
                (LayerNorm): LayerNorm()
                (dropout): Dropout(p=0.1, inplace=False)
              )
            )
            (intermediate): ProteinBertIntermediate(
              (dense): Linear(in_features=768, out_features=3072, bias=True)
            )
            (output): ProteinBertOutput(
              (dense): Linear(in_features=3072, out_features=768, bias=True)
              (LayerNorm): LayerNorm()
              (dropout): Dropout(p=0.1, inplace=False)
            )
          )
          (11): ProteinBertLayer(
            (attention): ProteinBertAttention(
              (self): ProteinBertSelfAttention(
                (query): Linear(in_features=768, out_features=768, bias=True)
                (key): Linear(in_features=768, out_features=768, bias=True)
                (value): Linear(in_features=768, out_features=768, bias=True)
                (dropout): Dropout(p=0.1, inplace=False)
              )
              (output): ProteinBertSelfOutput(
                (dense): Linear(in_features=768, out_features=768, bias=True)
                (LayerNorm): LayerNorm()
                (dropout): Dropout(p=0.1, inplace=False)
              )
            )
            (intermediate): ProteinBertIntermediate(
              (dense): Linear(in_features=768, out_features=3072, bias=True)
            )
            (output): ProteinBertOutput(
              (dense): Linear(in_features=3072, out_features=768, bias=True)
              (LayerNorm): LayerNorm()
              (dropout): Dropout(p=0.1, inplace=False)
            )
          )
        )
      )
      (pooler): ProteinBertPooler(
        (dense): Linear(in_features=768, out_features=768, bias=True)
        (activation): Tanh()
      )
    )
    (encoder_layer): TransformerEncoderLayer(
      (self_attn): MultiheadAttention(
        (out_proj): NonDynamicallyQuantizableLinear(in_features=768, out_features=768, bias=True)
      )
      (linear1): Linear(in_features=768, out_features=3072, bias=True)
      (dropout): Dropout(p=0.1, inplace=False)
      (linear2): Linear(in_features=3072, out_features=768, bias=True)
      (norm1): LayerNorm((768,), eps=1e-05, elementwise_affine=True)
      (norm2): LayerNorm((768,), eps=1e-05, elementwise_affine=True)
      (dropout1): Dropout(p=0.1, inplace=False)
      (dropout2): Dropout(p=0.1, inplace=False)
    )
    (encoder): TransformerEncoder(
      (layers): ModuleList(
        (0): TransformerEncoderLayer(
          (self_attn): MultiheadAttention(
            (out_proj): NonDynamicallyQuantizableLinear(in_features=768, out_features=768, bias=True)
          )
          (linear1): Linear(in_features=768, out_features=3072, bias=True)
          (dropout): Dropout(p=0.1, inplace=False)
          (linear2): Linear(in_features=3072, out_features=768, bias=True)
          (norm1): LayerNorm((768,), eps=1e-05, elementwise_affine=True)
          (norm2): LayerNorm((768,), eps=1e-05, elementwise_affine=True)
          (dropout1): Dropout(p=0.1, inplace=False)
          (dropout2): Dropout(p=0.1, inplace=False)
        )
        (1): TransformerEncoderLayer(
          (self_attn): MultiheadAttention(
            (out_proj): NonDynamicallyQuantizableLinear(in_features=768, out_features=768, bias=True)
          )
          (linear1): Linear(in_features=768, out_features=3072, bias=True)
          (dropout): Dropout(p=0.1, inplace=False)
          (linear2): Linear(in_features=3072, out_features=768, bias=True)
          (norm1): LayerNorm((768,), eps=1e-05, elementwise_affine=True)
          (norm2): LayerNorm((768,), eps=1e-05, elementwise_affine=True)
          (dropout1): Dropout(p=0.1, inplace=False)
          (dropout2): Dropout(p=0.1, inplace=False)
        )
        (2): TransformerEncoderLayer(
          (self_attn): MultiheadAttention(
            (out_proj): NonDynamicallyQuantizableLinear(in_features=768, out_features=768, bias=True)
          )
          (linear1): Linear(in_features=768, out_features=3072, bias=True)
          (dropout): Dropout(p=0.1, inplace=False)
          (linear2): Linear(in_features=3072, out_features=768, bias=True)
          (norm1): LayerNorm((768,), eps=1e-05, elementwise_affine=True)
          (norm2): LayerNorm((768,), eps=1e-05, elementwise_affine=True)
          (dropout1): Dropout(p=0.1, inplace=False)
          (dropout2): Dropout(p=0.1, inplace=False)
        )
      )
    )
  )
  (decoder): Decoder(
    (decoder_layer): TransformerDecoderLayer(
      (self_attn): MultiheadAttention(
        (out_proj): NonDynamicallyQuantizableLinear(in_features=768, out_features=768, bias=True)
      )
      (multihead_attn): MultiheadAttention(
        (out_proj): NonDynamicallyQuantizableLinear(in_features=768, out_features=768, bias=True)
      )
      (linear1): Linear(in_features=768, out_features=3072, bias=True)
      (dropout): Dropout(p=0.1, inplace=False)
      (linear2): Linear(in_features=3072, out_features=768, bias=True)
      (norm1): LayerNorm((768,), eps=1e-05, elementwise_affine=True)
      (norm2): LayerNorm((768,), eps=1e-05, elementwise_affine=True)
      (norm3): LayerNorm((768,), eps=1e-05, elementwise_affine=True)
      (dropout1): Dropout(p=0.1, inplace=False)
      (dropout2): Dropout(p=0.1, inplace=False)
      (dropout3): Dropout(p=0.1, inplace=False)
    )
    (decoder): TransformerDecoder(
      (layers): ModuleList(
        (0): TransformerDecoderLayer(
          (self_attn): MultiheadAttention(
            (out_proj): NonDynamicallyQuantizableLinear(in_features=768, out_features=768, bias=True)
          )
          (multihead_attn): MultiheadAttention(
            (out_proj): NonDynamicallyQuantizableLinear(in_features=768, out_features=768, bias=True)
          )
          (linear1): Linear(in_features=768, out_features=3072, bias=True)
          (dropout): Dropout(p=0.1, inplace=False)
          (linear2): Linear(in_features=3072, out_features=768, bias=True)
          (norm1): LayerNorm((768,), eps=1e-05, elementwise_affine=True)
          (norm2): LayerNorm((768,), eps=1e-05, elementwise_affine=True)
          (norm3): LayerNorm((768,), eps=1e-05, elementwise_affine=True)
          (dropout1): Dropout(p=0.1, inplace=False)
          (dropout2): Dropout(p=0.1, inplace=False)
          (dropout3): Dropout(p=0.1, inplace=False)
        )
        (1): TransformerDecoderLayer(
          (self_attn): MultiheadAttention(
            (out_proj): NonDynamicallyQuantizableLinear(in_features=768, out_features=768, bias=True)
          )
          (multihead_attn): MultiheadAttention(
            (out_proj): NonDynamicallyQuantizableLinear(in_features=768, out_features=768, bias=True)
          )
          (linear1): Linear(in_features=768, out_features=3072, bias=True)
          (dropout): Dropout(p=0.1, inplace=False)
          (linear2): Linear(in_features=3072, out_features=768, bias=True)
          (norm1): LayerNorm((768,), eps=1e-05, elementwise_affine=True)
          (norm2): LayerNorm((768,), eps=1e-05, elementwise_affine=True)
          (norm3): LayerNorm((768,), eps=1e-05, elementwise_affine=True)
          (dropout1): Dropout(p=0.1, inplace=False)
          (dropout2): Dropout(p=0.1, inplace=False)
          (dropout3): Dropout(p=0.1, inplace=False)
        )
        (2): TransformerDecoderLayer(
          (self_attn): MultiheadAttention(
            (out_proj): NonDynamicallyQuantizableLinear(in_features=768, out_features=768, bias=True)
          )
          (multihead_attn): MultiheadAttention(
            (out_proj): NonDynamicallyQuantizableLinear(in_features=768, out_features=768, bias=True)
          )
          (linear1): Linear(in_features=768, out_features=3072, bias=True)
          (dropout): Dropout(p=0.1, inplace=False)
          (linear2): Linear(in_features=3072, out_features=768, bias=True)
          (norm1): LayerNorm((768,), eps=1e-05, elementwise_affine=True)
          (norm2): LayerNorm((768,), eps=1e-05, elementwise_affine=True)
          (norm3): LayerNorm((768,), eps=1e-05, elementwise_affine=True)
          (dropout1): Dropout(p=0.1, inplace=False)
          (dropout2): Dropout(p=0.1, inplace=False)
          (dropout3): Dropout(p=0.1, inplace=False)
        )
      )
    )
    (fc_1): Linear(in_features=768, out_features=256, bias=True)
    (fc_2): Linear(in_features=256, out_features=2, bias=True)
    (dropout): Dropout(p=0.1, inplace=False)
  )
  (fc_1): Linear(in_features=34, out_features=34, bias=True)
  (fc_2): Linear(in_features=34, out_features=768, bias=True)
)